weights/vit_weights.pth (torch, 401368 bytes, 49 tensors)

pos_embed f4 [1, 4, 32]
0.05787441 0.19876786 0.11810423 -0.106255576 -0.48208207 0.1288027 -0.16064997 0.17832492
0.395339 -0.262294 -0.20416032 -1.3637971 0.17775778 0.529472 1.0263038 0.37944898
-0.1253765 -0.8274056 0.344672 0.35144728 0.5727593 -0.93013674 0.4314986 -0.22405986
-0.24257445 -0.529618 0.20752099 -0.13477217 0.35635406 0.21572106 -0.059345603 0.015663994
-0.21275194 -0.16295312 0.060459204 0.14781202 0.5290994 -0.5145202 -0.44347394 0.28623712
0.16797137 -0.6823734 0.23348816 -0.86846054 0.43956578 1.3331898 0.58322316 -0.22687986
-0.12638934 -0.7792028 -0.08458237 0.49207172 0.24179679 0.1796194 0.6170493 -0.11805931
-0.15458763 -0.25326863 -0.15677443 0.25387067 -0.5565856 0.0709339 -0.009377499 -0.4888494
-0.014446234 0.050302837 -0.2071333 0.34796208 -0.01823278 0.1715765 0.14288531 -0.022050595
-0.5740979 0.31862858 0.057920072 1.2473975 -0.55512667 0.007982115 -1.0807077 -0.33417773
0.0025846632 0.9110271 0.16974153 -0.21984608 -0.76898605 0.63703704 -0.19236307 0.31330007
0.22782443 0.29664573 -0.061737247 -0.37792155 -0.26210025 -0.196631 -0.24791996 0.03459782
0.11268699 -0.2420776 -0.27531695 -0.18614936 -0.21567425 0.006482204 0.6180915 -0.42386708
0.11445085 0.4386835 -0.113659866 0.60606045 -0.13599616 -1.8783891 -0.39373916 0.1367062
0.1837789 0.65264744 -0.4797696 -0.05992709 -0.043761306 -0.24298751 -0.47018602 0.5894907
0.2804253 0.030863896 -0.2261444 0.17663176 1.0948825 -0.15950277 -0.055366185 0.49892122
00000000: b80d 6d3d cd89 4b3e a1e0 f13d 869c d9bd
00000010: 76d3 f6be dbe4 033e 6d81 24be cf9a 363e
00000020: e069 ca3e 664b 86be 670f 51be e790 aebf
00000030: 2306 363e 7a8b 073f ec5d 833f 2347 c23e
00000040: b262 00be dad0 53bf d978 b03e e6f0 b33e
00000050: 5aa0 123f 711d 6ebf 62ed dc3e f36f 65be
00000060: 7065 78be 0c95 07bf 6280 543e b701 0abe
00000070: 0a74 b63e fbe5 5c3e 6014 73bd c751 803c
00000080: a5db 59be 2fdd 26be 12a4 773d 095c 173e
00000090: 0f73 073f 99b7 03bf 040f e3be ac8d 923e
000000a0: b000 2c3e 06b0 2ebf 8517 6f3e 6e53 5ebf
000000b0: c40e e13e f7a5 aa3f 1d4e 153f 3253 68be
000000c0: 356c 01be d679 47bf 8639 adbd d3f0 fb3e
000000d0: 9499 773e 26ee 373e f1f6 1d3f 14c9 f1bd
000000e0: 384c 1ebe 6dac 81be 7a89 20be 56fb 813e
000000f0: 657c 0ebf cb45 913d 15a4 19bc 784a fabe
00000100: e6af 6cbc 590a 4e3d c01a 54be 1628 b23e
00000110: e95c 95bc c0b1 2f3e 8750 123e 73a3 b4bc
00000120: 14f8 12bf 4923 a33e 993d 6d3d b9aa 9f3f
00000130: c81c 0ebf 6bc7 023c a154 8abf 5819 abbe
00000140: 7463 293b 1239 693f b9d0 2d3e 551f 61be
00000150: 45dc 44bf dc14 233f d3fa 44be de68 a03e
00000160: cf4a 693e f3e1 973e 32e0 7cbd ef7e c1be
00000170: 0132 86be a359 49be bbde 7dbe 72b6 0d3d
00000180: 70c8 e63d 31e3 77be 58f6 8cbe f09d 3ebe
00000190: b6d9 5cbe ab68 d43b 3f3b 1e3f 1b05 d9be
000001a0: 3565 ea3d 209b e03e 81c6 e8bd c726 1b3f
000001b0: 9442 0bbe 0e6f f0bf 2e98 c9be b6fc 0b3e
000001c0: 8930 3c3e e713 273f 5ca4 f5be 1c76 75bd
000001d0: 0e3f 33bd b8d1 78be 39bc f0be dde8 163f
000001e0: e893 8f3e 48d6 fc3c 6692 67be f5de 343e
000001f0: 1c25 8c3f b254 23be a7c7 62bd 9a72 ff3e

patch_embed.proj.weight f4 [32, 3, 16, 16]
-0.08849232 -0.16030093 -0.10300243 -0.015278887 -0.023778131 -0.04410625 -0.046788875 -0.033457752
-0.057034407 -0.12531312 -0.10955722 -0.095435314 -0.048903547 -0.11482909 -0.10623051 -0.012921076
0.010187715 -0.047334768 -0.04163153 0.058420237 -0.019164154 -0.017520329 0.019671783 -0.01121715
-0.06610642 -0.09094586 -0.056109406 -0.16267985 -0.096588686 -0.10310278 -0.056471843 0.018396866
0.049096204 0.04921389 0.04562892 -0.01400455 0.002270475 0.0033322629 0.03942413 -0.008756713
-0.07884889 -0.099299446 -0.09122771 -0.09807962 -0.13069814 -0.106615484 -0.06587782 -0.0070777014
0.073110506 0.060194388 0.068610035 0.04652256 0.0032018851 0.012963684 -0.022242382 0.020379877
-0.039999317 -0.1397442 -0.06523161 -0.059397813 -0.08343906 -0.10693426 -0.092938334 -0.14245746
0.06033267 0.0072148065 0.0017515772 0.040306393 0.05794758 0.046016455 0.008252791 0.07174732
-0.0052048624 -0.035329547 0.013080682 0.034405578 -0.015076408 -0.111177966 -0.04474898 -0.13634536
0.14575842 0.11325718 0.021459466 0.016601833 0.10077801 0.18448113 0.10101669 0.060771104
0.07393155 0.017302748 0.08874536 0.10475958 0.020474654 0.01824776 -0.009670065 -0.039421506
0.13221888 0.13637646 0.138493 0.0948357 0.08706186 0.1147318 0.010164723 0.115631275
0.06294203 0.041511852 0.06741179 0.12078617 0.017011922 0.030677551 0.011959297 0.0151723735
0.050290715 0.039841864 0.04010762 0.016175425 0.06579095 0.041740995 0.020359773 0.052327156
0.073450126 0.032220576 0.029559825 0.054068107 -0.025774078 -0.060009923 -0.00019190712 -0.031166127
0.0015845035 -0.048542075 0.0042618345 -0.034851752 -0.07561836 -0.07900483 -0.040483303 -0.05930277
0.07521958 0.085735925 -0.022350103 -0.035609882 -0.03129469 -0.059950024 -0.053191368 -0.0018378791
0.13173962 0.04242422 -0.007226141 0.018381327 -0.023972597 -0.023739966 -0.001173467 -0.07286715
0.033982016 -0.028370975 -0.039029736 -0.055324294 0.033169203 -0.0077945907 0.008811954 0.089763425
0.06757294 0.11716504 0.06909088 0.07371192 -0.036637224 -0.017699186 -0.0006205612 -0.07765016
0.009212324 0.041967355 0.008968129 -0.022052517 -0.010518313 -0.059940804 -0.049542893 0.011345392
0.0044819615 0.096685454 0.092841156 0.011688307 -0.024251381 -0.021840144 -0.03077313 -0.0019207294
0.016700469 0.02458057 -0.015429001 0.035843775 -0.05529197 -0.05157159 -0.1219558 -0.0984435
0.010684177 0.0024140428 0.06667744 -0.0007567152 0.031646084 0.0936373 0.07608752 0.05789268
0.068084165 0.03545705 0.07587147 0.07895797 -0.022161584 -0.036179315 -0.061652757 -0.06368034
0.0004808592 -0.038339276 -0.021648005 0.057790272 0.06672357 0.108767234 0.07132598 0.078845195
0.12623867 0.08393848 0.13746019 0.085921094 0.05683845 -0.039119884 -0.040187117 -0.039708003
0.06131019 0.060831074 0.022364596 0.022215487 0.050994426 0.029116096 0.063758545 -0.01094692
0.012574385 0.04371344 0.10911827 0.059479892 -0.058883104 0.026827967 0.021009808 0.09294792
0.008714593 -0.024994422 -0.021100914 -0.047848687 -0.008666492 0.03441788 0.025787544 -0.036850907
-0.10862577 -0.08156356 -0.013960484 -0.024238741 -0.09077423 -0.07997279 -0.02035276 -0.021078266
00000000: 763b b5bd ed25 24be f0f2 d2bd 4c54 7abc
00000010: 5bca c2bc c1a8 34bd b1a5 3fbd ff0a 09bd
00000020: e99c 69bd 1552 00be 895f e0bd 9773 c3bd
00000030: 164f 48bd 842b ebbd 628f d9bd ecb2 53bc
00000040: 60ea 263c 1ae2 41bd d385 2abd 0f4a 6f3d
00000050: 25fe 9cbc cb86 8fbc b826 a13c 23c8 37bc
00000060: cd62 87bd d341 babd fad2 65bd 8c95 26be
00000070: 4ad0 c5bd 8d27 d3bd 054f 67bd 06b5 963c
00000080: 1a19 493d 8194 493d 64e5 3a3d 5773 65bc
00000090: 40cc 143b 1862 5a3b 327b 213d 5178 0fbc
000000a0: 877b a1bd 825d cbbd 98d5 babd f8dd c8bd
000000b0: bcd5 05be 3859 dabd f3ea 86bd 10ec e7bb
000000c0: f6ba 953d 648e 763d 6b83 8c3d 718e 3e3d
000000d0: b8d6 513b a265 543c a835 b6bc b3f3 a63c
000000e0: 53d6 23bd 1b19 0fbe 2698 85bd 1f4b 73bd
000000f0: 19e2 aabd 5900 dbbd 7456 bebd 5ee0 11be
00000100: 641f 773d 2f6a ec3b 2e95 e53a 5118 253d
00000110: 715a 6d3d c07b 3c3d b736 073c 42f0 923d
00000120: 8d8d aabb b7b5 10bd 5b50 563c ddec 0c3d
00000130: 0a03 77bc 46b1 e3bd b54a 37bd 1e9e 0bbe
00000140: b241 153e 61f3 e73d c3cb af3c 9100 883c
00000150: b464 ce3d 9fe8 3c3e d7e1 ce3d 1feb 783d
00000160: 6d69 973d 7ebe 8d3c 21c0 b53d 318c d63d
00000170: 76ba a73c 547c 953c 316f 1ebc 7278 21bd
00000180: 6364 073e 45a6 0b3e 1cd1 0d3e 3839 c23d
00000190: 7d4d b23d 82f8 ea3d f089 263c 17d0 ec3d
000001a0: c0e7 803d 5508 2a3d 310f 8a3d bd5e f73d
000001b0: 965c 8b3c 7d4f fb3c edf0 433c 8c95 783c
000001c0: a3fd 4d3d 3931 233d e347 243d 5382 843c
000001d0: 68bd 863d 9bf8 2a3d 8ac9 a63c 0055 563d
000001e0: 056d 963d b9f9 033d 7227 f23c 8576 5d3d
000001f0: 2924 d3bc f7cc 75bd ad3a 49b9 1b50 ffbc
00000200: 1daf cf3a 0ed4 46bd dca6 8b3b b6c0 0ebd
00000210: ccdd 9abd 49cd a1bd d2d1 25bd 76e7 72bd
00000220: b90c 9a3d 5196 af3d 9017 b7bc abdb 11bd
00000230: dc2e 00bd 288e 75bd 31df 59bd fde4 f0ba
00000240: c0e6 063e 05c5 2d3d 44c9 ecbb 7094 963c
00000250: 2e62 c4bc 517a c2bc 05cf 99ba 5f3b 95bd
00000260: ba30 0b3d 3f6a e8bc a5dd 1fbd ba9b 62bd
00000270: 6edc 073d c469 ffbb 0460 103c e3d5 b73d
00000280: ae63 8a3d 39f4 ef3d 857f 8d3d 46f6 963d
00000290: ea10 16bd e2fd 90bc 28ad 22ba 0c07 9fbd
000002a0: 4aef 163c f6e5 2b3d 0fef 123c 7ba7 b4bc
000002b0: 0155 2cbc 7d84 75bd 7ded 4abd 06e2 393c
000002c0: 6bdd 923b 0603 c63d 8123 be3d 5080 3f3c
000002d0: d5aa c6bc 1aea b2bc ee17 fcbc fcc0 fbba
000002e0: 6ccf 883c 315d c93c ecc9 7cbc ecd0 123d
000002f0: d579 62bd bb3c 53bd f6c3 f9bd bf9c c9bd
00000300: b00c 2f3c eb34 1e3b 2f8e 883d 4c5e 46ba
00000310: 539f 013d eac4 bf3d c6d3 9b3d e020 6d3d
00000320: b66f 8b3d 693b 113d 8062 9b3d b7b4 a13d
00000330: 368c b5bc c330 14bd 9a87 7cbd d76a 82bd
00000340: d41b fc39 a509 1dbd 2857 b1bc 7eb5 6c3d
00000350: 5ea6 883d 5bc1 de3d 5b13 923d 9779 a13d
00000360: b644 013e f0e7 ab3d 5dc2 0c3e 66f7 af3d
00000370: 6fcf 683d 2c3c 20bd 3f9b 24bd dca4 22bd
00000380: 6520 7b3d 012a 793d f535 b73c 41fd b53c
00000390: 88df 503d e184 ee3c d793 823d b65a 33bc
000003a0: cb04 4e3c dd0c 333d 6679 df3d 30a1 733d
000003b0: 692f 71bd 53c6 db3c c31c ac3c 7b5b be3d
000003c0: a7c7 0e3c 1ac1 ccbc d3db acbc fcfc 43bd
000003d0: e7fd 0dbc c3f9 0c3d 6640 d33c faf0 16bd
000003e0: 3077 debd cc0a a7bd 84ba 64bc 5390 c6bc
000003f0: d7e7 b9bd c6c8 a3bd d5ba a6bc 54ac acbc

patch_embed.proj.bias f4 [32]
0.008347015 -0.061763894 -0.06928177 0.07866835 -0.062073763 -0.06612539 0.07072248 0.019370912
-0.028532395 -0.0447011 -0.015103195 -0.07441092 -0.060719244 -0.09753891 0.04752654 -0.03754428
-0.022722809 0.008166089 -0.010380806 0.10171034 -0.019287169 -0.07704905 0.14092942 0.15585761
0.04398375 -0.16203284 -0.07483938 -0.01247802 0.2736219 -0.044113323 -0.09884506 0.04535714
00000000: ebc1 083c 23fc 7cbd 9ae3 8dbd df1c a13d
00000010: 0f41 7ebd c06c 87bd f3d6 903d bfaf 9e3c
00000020: c5bc e9bc 8018 37bd 6473 77bc c164 98bd
00000030: beb4 78bd 7bc2 c7bd 30ab 423d 08c8 19bd
00000040: 2f25 babc 0fcb 053c 4214 2abc 834d d03d
00000050: 2000 9ebc e4cb 9dbd cd4f 103e 2399 1f3e
00000060: 4e28 343d f0eb 25be 6445 99bd 9c70 4cbc
00000070: 2b18 8c3e 2cb0 34bd 476f cabd 69c8 393d

blocks.0.attn.qkv.weight f4 [96, 32]
0.09911658 0.17141137 -0.024984568 0.049240872 0.056044452 -0.07877116 -0.17880356 0.14518605
0.2656296 0.051188402 0.25428665 0.19487818 -0.053834375 0.033570956 -0.16787595 -0.12042013
-0.18561044 -0.12710664 -0.17120999 0.15590276 0.27014124 -0.05418806 0.13753699 0.049895782
-0.17000277 0.08845791 -0.18789354 0.010687991 -0.03194542 0.06815006 -0.06663967 -0.16425882
-0.10977261 0.01459886 0.090507925 -0.30491996 0.24989557 0.040486433 0.2773705 -0.012586406
-0.120352946 -0.29009765 0.031390455 0.17872834 0.06803118 -0.002393146 -0.21840921 -0.12380735
0.06951757 0.008369869 0.038475953 -0.12457234 0.011333023 -0.10050665 -0.24403733 0.16753455
-0.013889486 0.096734636 -0.327669 -0.034660652 -0.07542702 -0.17685917 0.22073959 0.13720675
-0.08922569 0.022104984 -0.09770124 0.15546802 -0.12215103 -0.04060773 -0.14085199 0.05993683
0.04666642 -0.10311706 -0.3108539 -0.16013165 0.02158052 0.06640725 0.085332654 -0.1813831
0.060536046 -0.20889474 -0.15667808 -0.14193639 0.13230473 -0.067590356 0.062000647 -0.017450482
-0.19391125 -0.167812 -0.030552203 0.13148957 0.21009345 0.45142394 -0.134471 -0.23958997
-0.20829552 -0.086830646 0.013948448 0.26874918 0.07163174 0.12004355 0.11909312 -0.004216628
0.17368749 -0.08423232 -0.28093866 -0.23444705 -0.25838697 -0.11733362 0.022205878 0.054391097
0.0032664966 0.09266122 0.2307646 -0.3602946 0.009362296 -0.29398775 0.098015815 0.16889043
0.16899687 -0.033698026 0.37930354 -0.051218428 0.2537632 0.07098814 -0.07801625 0.10963255
-0.18492568 0.025322849 -0.21995747 0.17109658 -0.19856437 0.2509236 0.054760884 0.12017008
-0.020623384 -0.05389778 -0.06856615 -0.108918294 0.05699034 -0.08689418 -0.016643526 -0.089240745
-0.21398106 -0.32452133 -0.06717665 0.059009604 0.32149252 0.28481796 0.19532686 0.11135466
-0.10461842 -0.42079416 0.13817286 0.17389315 0.14956847 0.17444949 0.011561396 0.01854883
-0.100733 -0.25108153 0.12430578 -0.015712202 -0.04944938 0.112207815 0.022140807 0.21241692
0.3107911 -0.05324812 -0.23203675 -0.1599284 -0.280091 0.04535771 -0.1827921 -0.08571702
-0.12667799 -0.22356212 0.017939625 -0.34124592 0.31261048 -0.26744467 0.038131006 0.22719924
-0.27529308 -0.04202287 0.13117409 0.18075486 0.3197443 0.30175057 -0.18025932 -0.12613878
0.21633135 -0.17754342 -0.30382353 0.10408433 0.18728405 -0.008884408 -0.09454871 0.12437042
0.08872982 -0.005488374 0.3170135 0.1487025 0.13322683 0.15902533 -0.24031164 0.19902897
-0.13637097 -0.1401879 0.082883015 0.17815572 -0.006204294 0.17162701 0.053974558 -0.17582665
-0.053830083 -0.107711844 -0.04613602 0.01806543 0.07793853 0.12875666 -0.08513365 -0.20762117
-0.049059812 -0.17652288 0.15234044 0.035173785 0.22133867 -0.083641924 -0.1833881 -0.13853768
-0.24608155 0.07833116 -0.007760965 0.19701363 -0.169147 -0.23372987 -0.03687719 -0.04301998
0.121718906 0.4002094 -0.196302 0.09709264 0.005611351 -0.34529048 -0.08241891 0.04195325
-0.11970516 0.27395764 -0.021854786 -0.21778361 0.053722437 0.10893398 0.089449465 -0.19843952
00000000: a2fd ca3d 7686 2f3e 70ac ccbc ccb0 493d
00000010: de8e 653d c652 a1bd 4818 37be a7ab 143e
00000020: 9a00 883e eeaa 513d dc31 823e 258e 473e
00000030: 6f81 5cbd b381 093d ace7 2bbe d49e f6bd
00000040: aa10 3ebe 3e28 02be ac51 2fbe f9a4 1f3e
00000050: f44f 8a3e 4df4 5dbd 7fd6 0c3e 855f 4c3d
00000060: 3515 2ebe 6c29 b53d 2a67 40be af1c 2f3c
00000070: 33d9 02bd 4292 8b3d 617a 88bd 7733 28be
00000080: 76d0 e0bd 0f30 6f3c 385c b93d 781e 9cbe
00000090: a0e4 7f3e 1ad5 253d 8203 8e3e 3737 4ebc
000000a0: 9b7b f6bd ae87 94be 4793 003d 9004 373e
000000b0: ee53 8b3d 54d6 1cbb aaa6 5fbe b58e fdbd
000000c0: 3a5f 8e3d c621 093c f698 1d3d c81f ffbd
000000d0: 25ae 393c 6ed6 cdbd ece4 79be 2d8e 2b3e
000000e0: ba90 63bc cf1c c63d 3bc4 a7be 54f8 0dbd
000000f0: 7b79 9abd 921a 35be 8f09 623e ed7f 0c3e
00000100: f5bb b6bd 8315 b53c 9617 c8bd 0233 1f3e
00000110: 522a fabd 4b54 26bd 813b 10be 5280 753d
00000120: 4a25 3f3d 0a2f d3bd 3e28 9fbe 8df9 23be
00000130: a1c9 b03c 8600 883d e3c2 ae3d 7ebc 39be
00000140: a5f4 773d 81e8 55be 3870 20be c657 11be
00000150: e47a 073e d06c 8abd 64f4 7d3d 50f4 8ebc
00000160: ac90 46be e9d6 2bbe 9d48 fabc 34a5 063e
00000170: bd22 573e 0a21 e73e c4b2 09be 1357 75be
00000180: 6c4b 55be 44d4 b1bd 0888 643c 7e99 893e
00000190: a9b3 923d 65d9 f53d 18e7 f33d a42b 8abb
000001a0: 22db 313e ff81 acbd 31d7 8fbe e312 70be
000001b0: 4c4b 84be 9c4c f0bd 1ae9 b53c 33c9 5e3d
000001c0: b812 563b 2ac5 bd3d 8e4d 6c3e 8978 b8be
000001d0: 5164 193c 9085 96be 84bc c83d 9df1 2c3e
000001e0: 840d 2d3e f106 0abd 1334 c23e 6aca 51bd
000001f0: 40ed 813e 3b62 913d fcc6 9fbd 0887 e03d
00000200: 285d 3dbe dd71 cf3c 883c 61be f133 2f3e
00000210: 7554 4bbe 0f79 803e f34c 603d bb1b f63d
00000220: 5ff2 a8bc ebc3 5cbd 696c 8cbd 8e10 dfbd
00000230: b46e 693d 93f5 b1bd 0158 88bc dac3 b6bd
00000240: da1d 5bbe a927 a6be e993 89bd 0eb4 713d
00000250: ab9a a43e a9d3 913e c403 483e e90d e43d
00000260: 2f42 d6bd 5572 d7be 307d 0d3e 0c11 323e
00000270: 7a28 193e e3a2 323e 026c 3d3c b7f3 973c
00000280: 1a4d cebd c28d 80be 0794 fe3d e0b6 80bc
00000290: 6f8b 4abd 36cd e53d a360 b53c d283 593e
000002a0: 0320 9f3e b31a 5abd 0b9b 6dbe 45c4 23be
000002b0: 1668 8fbe 02c9 393d da2d 3bbe 688c afbd
000002c0: e0b7 01be 78ed 64be 1ff6 923c c9b7 aebe
000002d0: 7b0e a03e 82ee 88be 422f 1c3d eba6 683e
000002e0: 37f3 8cbe 2c20 2cbd 8052 063e cd17 393e
000002f0: 86b5 a33e 0d7f 9a3e e695 38be 862a 01be
00000300: f785 5d3e f1cd 35be c28e 9bbe 2a2a d53d
00000310: 64c7 3f3e e88f 11bc c1a2 c1bd ebb5 fe3d
00000320: fbb7 b53d d1d7 b3bb 984f a23e 7845 183e
00000330: 9d6c 083e 89d7 223e 4114 76be 40ce 4b3e
00000340: d5a4 0bbe 6b8d 0fbe 92be a93d 746e 363e
00000350: 644d cbbb febe 2f3e 6d14 5d3d e70b 34be
00000360: ef7c 5cbd 0798 dcbd 20f9 3cbd f4fd 933c
00000370: 3c9e 9f3d c9d8 033e 8d5a aebd a59a 54be
00000380: f1f2 48bd 6ac2 34be 22ff 1b3e 6312 103d
00000390: 9ba6 623e 754c abbd 17ca 3bbe d2dc 0dbe
000003a0: cdfc 7bbe 166c a03d b14f febb f1bd 493e
000003b0: df34 2dbe e256 6fbe 890c 17bd b835 30bd
000003c0: c347 f93d 3fe8 cc3e 6403 49be 82d8 c63d
000003d0: 6ddf b73b eac9 b0be 3fcb a8bd 2cd7 2b3d
000003e0: fb27 f5bd 2d44 8c3e cf08 b3bc ab02 5fbe
000003f0: 0f0c 5c3d c718 df3d 4831 b73d bb33 4bbe

blocks.0.attn.qkv.bias f4 [96]
-0.064379275 -0.023124138 0.26388776 0.39392394 0.34704563 0.053210955 -0.11240654 -0.07748304
-0.24348995 0.38261667 0.093425475 0.07974367 -0.06986555 -0.48087525 0.067367546 -0.36506692
0.22344348 -0.026209794 0.24251445 -0.060712013 0.100555636 0.34079683 -0.16538675 -0.4229102
0.11324372 -0.22132583 0.09791234 0.17951424 0.09166658 0.3123209 -0.103512146 -0.26242143
-0.07194198 0.09853413 0.053651754 0.13808793 0.10311941 0.081804685 -0.08027058 -0.098760664
-0.09059266 -0.071604885 -0.13846056 0.0029600342 0.10714248 -0.009084624 0.110572495 -0.036484152
-0.13718107 -0.072562225 -0.08235434 -0.081324205 0.0096465405 -0.13899074 0.120961994 0.096975975
0.06057582 -0.048745293 -0.062970325 -0.018007338 -0.040860653 -0.13062301 -0.10574909 0.15745161
-0.090236686 0.25144947 0.110422514 -0.17000695 -0.20858279 -0.06629834 -0.031080171 0.20515704
0.24403173 -0.038934566 -0.18895622 -0.195508 0.27135763 -0.21577716 -0.041899987 -0.092402756
0.26311833 0.2212645 0.22126573 0.18435656 0.21822634 -0.04048023 0.08899451 0.16554913
-0.09648095 0.13336739 0.23204796 -0.004318016 0.013110662 -0.0784805 0.18482187 0.1468248
00000000: 48d9 83bd d56e bdbc 4c1c 873e 66b0 c93e
00000010: f7af b13e bbf3 593d 6635 e6bd 6eaf 9ebd
00000020: 6e55 79be 55e6 c33e db55 bf3d a650 a33d
00000030: ab15 8fbd 4835 f6be fff7 893d 0dea babe
00000040: 5ece 643e ecb5 d6bc b555 783e 29ad 78bd
00000050: 1df0 cd3d ec7c ae3e 255b 29be b087 d8be
00000060: 53ec e73d 3da3 62be 4486 c83d 95d2 373e
00000070: b0bb bb3d 86e8 9f3e 2dfe d3bd 1a5c 86be
00000080: 5156 93bd 43cc c93d f1c1 5b3d ec66 0d3e
00000090: 4530 d33d 3789 a73d e764 a4bd 0843 cabd
000000a0: a588 b9bd 95a5 92bd 9bc8 0dbe 22fd 413b
000000b0: 846d db3d add7 14bc d573 e23d 6870 15bd
000000c0: 3279 0cbe 819b 94bd 64a9 a8bd 4e8d a6bd
000000d0: 860c 1e3c 9753 0ebe ecba f73d 579b c63d
000000e0: 5a1e 783d 25a9 47bd 96f6 80bd 2084 93bc
000000f0: 805d 27bd 0ac2 05be fb92 d8bd ff3a 213e
00000100: 03ce b8bd fcbd 803e 3325 e23d 4d16 2ebe
00000110: ba96 55be 6dc7 87bd d89b febc b014 523e
00000120: 74e3 793e da79 1fbd bd7d 41be 4033 48be
00000130: 63ef 8a3e b0f4 5cbe 529f 2bbd a83d bdbd
00000140: 72b7 863e 2993 623e 7c93 623e f7c7 3c3e
00000150: ba76 5f3e 99ce 25bd c142 b63d b685 293e
00000160: ce97 c5bd 7691 083e fb9d 6d3e 257e 8dbb
00000170: 1ace 563c 62ba a0bd f241 3d3e 3e59 163e

blocks.0.attn.proj.weight f4 [32, 32]
0.25839853 0.28804567 0.22345273 0.28149277 -0.16494523 0.055085268 0.083009265 0.35053384
-0.070424534 0.13188425 0.1396111 0.11159294 0.11763934 0.001428796 -0.04995144 -0.016976137
0.0007241327 0.1479882 -0.1503668 -0.2633784 -0.097080216 -0.416325 -0.119388185 0.27924132
-0.10481329 0.184651 0.16931824 0.13885017 -0.32585153 -0.25759205 0.072796434 -0.23124056
-0.14035179 -0.0015217055 -0.0016383189 -0.14590402 0.03653925 -0.15113313 0.145741 -0.24879172
0.16015576 0.073249094 0.07700512 0.20258957 0.028318007 -0.0662585 -0.24179865 0.10182043
0.15588462 -0.104989745 -0.023029223 0.1300034 -0.044745103 -0.07035474 0.19109003 0.030376518
0.020490248 -0.31075177 0.21987459 -0.20631744 0.2900814 0.23845471 0.10245332 0.05020066
-0.28543028 -0.025998788 0.15551297 -0.0930622 -0.2616741 0.18203329 -0.10822942 -0.24396303
0.032165755 -0.10651034 -0.31721267 0.16662863 -0.40686825 0.13544719 0.013764318 0.029923096
0.11162293 0.087515585 -0.10830511 -0.05063674 0.018151456 -0.021412965 0.16855708 -0.07993804
-0.27068126 0.096171044 -0.047276445 0.042157046 0.09479369 -0.027683208 -0.044579893 0.06811402
-0.272057 -0.008027408 0.020305628 -0.24267538 -0.082911275 -0.09778247 0.17502144 0.10410733
-0.08863709 0.089091726 0.18274868 -0.4076955 0.25375444 -0.13702783 -0.08042115 -0.023853287
0.22790493 -0.024000883 0.075011805 0.61476594 0.07256552 -0.04440395 0.20715308 0.039068177
-0.0037773517 -0.22717796 0.096083485 0.34456128 0.29473004 -0.01413905 0.10879652 -0.14199932
0.3727693 0.18133171 -0.12690043 0.20396245 0.058469664 0.17103358 -0.07438256 0.1761251
-0.24267557 0.089329496 0.052230295 0.22881116 -0.13748047 0.09478133 0.21416223 0.04030194
-0.20533012 -0.35534066 -0.25164273 -0.45325235 -0.39158544 -0.08313602 -0.21505935 0.1023612
0.1762422 0.22644383 -0.28987455 -0.06486052 -0.10914541 -0.17694473 -0.14765929 -0.2694695
-0.02625236 -0.39157233 -0.06369562 0.12035915 -0.11807164 0.055763025 -0.0014332421 -0.18429771
-0.15055835 0.012659382 0.07395273 -0.1596265 0.1673271 -0.21208586 0.45569557 -0.29289842
-0.20506838 -0.2802573 -0.079802915 0.4261105 -0.24212018 0.5291652 -0.079973266 -0.2934459
0.48487142 -0.42794883 0.13711151 -0.36846533 0.16366754 -0.082074985 -0.08238237 0.039294623
-0.16983579 -0.042252343 0.075292826 0.100719616 -0.075800754 0.21970117 -0.18038383 -0.09529141
-0.13673803 -0.0348112 0.29889542 0.1516588 -0.3211095 0.22721997 -0.14202859 0.46053395
0.082622625 -0.61667395 -0.32438743 -0.5830514 -0.4272714 0.15371116 -0.06409264 -0.22389702
-0.11024792 0.10773337 -0.13390014 0.24768913 -0.08011986 -0.09258245 0.048434764 0.023006758
0.10680736 0.11082887 0.03865357 0.111711815 -0.038565584 0.4012794 -0.32674494 0.0022365414
0.037230425 0.021682426 0.089625485 -0.2648759 -0.018130671 -0.08212386 0.036124196 0.27433288
-0.09704701 0.24046507 0.17740972 0.23755996 0.0551729 0.2320414 0.11123921 0.003048503
-0.10281784 -0.2756148 0.25019452 0.275208 0.36110523 0.1585435 0.35341865 0.0354771
00000000: d04c 843e b97a 933e cbd0 643e d21f 903e
00000010: 67e7 28be 17a1 613d c300 aa3d 2c79 b33e
00000020: bd3a 90bd aa0c 073e 36f6 0e3e d78a e43d
00000030: e5ec f03d 7046 bb3a e299 4cbd 8a11 8bbc
00000040: b9d3 3d3a 388a 173e c1f9 19be 89d9 86be
00000050: fed1 c6bd 8d28 d5be cb81 f4bd b8f8 8e3e
00000060: 5aa8 d6bd 2715 3d3e c361 2d3e bd2e 0e3e
00000070: 03d6 a6be 1be3 83be 4c16 953d 53ca 6cbe
00000080: 61b8 0fbe f773 c7ba dcbc d6ba dd67 15be
00000090: 2eaa 153d a5c2 1abe 213d 153e 42c3 7ebe
000000a0: dfff 233e 9f03 963d dcb4 9d3d a473 4f3e
000000b0: 2afb e73c 89b2 87bd 119a 77be 3b87 d03d
000000c0: 38a0 1f3e dd04 d7bd c8a7 bcbc 9c1f 053e
000000d0: a446 37bd 2516 90bd 1bad 433e 2dd8 f83c
000000e0: 2adb a73c db1a 9fbe ce26 613e e144 53be
000000f0: 8d85 943e 792d 743e 0cd3 d13d 359f 4d3d
00000100: eb23 92be 69fb d4bc cb3e 1f3e 6597 bebd
00000110: 26fa 85be ef66 3a3e 63a7 ddbd 72d1 79be
00000120: 3dc0 033d 1822 dabd b369 a2be b2a0 2a3e
00000130: 0951 d0be abb2 0a3e bc83 613c 4821 f53c
00000140: 909a e43d 5f3b b33d 12cf ddbd 7868 4fbd
00000150: 5db2 943c 3e6a afbc 3a9a 2c3e 8eb6 a3bd
00000160: bc96 8abe 53f5 c43d f2a4 41bd deac 2c3d
00000170: 3223 c23d e5c7 e2bc 6899 36bd 5d7f 8b3d
00000180: 0e4b 8bbe 6485 03bc fd57 a63c e57f 78be
00000190: 63cd a9bd 2d42 c8bd d238 333e 3936 d53d
000001a0: 5d87 b5bd b975 b63d 7822 3b3e 77bd d0be
000001b0: 1aec 813e 0651 0cbe d8b3 a4bd f867 c3bc
000001c0: e95f 693e 809d c4bc ca9f 993d 4d61 1d3f
000001d0: 3b9d 943d ebe0 35bd f01f 543e f405 203d
000001e0: 728d 77bb 57a1 68be 6bc7 c43d 566a b03e
000001f0: dbe6 963e 79a7 67bc b6d0 de3d 4568 11be
00000200: 9edb be3e 05af 393e 30f2 01be 88db 503e
00000210: e37d 6f3d 6d23 2f3e e255 98bd 235a 343e
00000220: f27f 78be 62f2 b63d 6fef 553d 794d 6a3e
00000230: aec7 0cbe b71c c23d 584d 5b3e a613 253d
00000240: 0f42 52be 36ef b5be 51d7 80be b110 e8be
00000250: e37d c8be 3843 aabd 8538 5cbe c0a2 d13d
00000260: d678 343e e4e0 673e 706a 94be 98d5 84bd
00000270: a187 dfbd 0031 35be ff33 17be e8f7 89be
00000280: 300f d7bc 2b7c c8be d972 82bd dc7e f63d
00000290: 8bcf f1bd c567 643d a0db bbba 8ab8 3cbe
000002a0: f82b 1abe 4c69 4f3c 8774 973d 2175 23be
000002b0: cc57 2b3e 092d 59be ee50 e93e c8f6 95be
000002c0: 72fd 51be e37d 8fbe b66f a3bd 282b da3e
000002d0: 5aee 77be 5f77 073f 06c9 a3bd 8a3e 96be
000002e0: 1141 f83e 1c1c dbbe f666 0c3e 7da7 bcbe
000002f0: 7798 273e ee16 a8bd 17b8 a8bd 66f3 203d
00000300: 6fe9 2dbe cb10 2dbd 2033 9a3d 1646 ce3d
00000310: 6d3d 9bbd 58f9 603e 8ab6 38be 2528 c3bd
00000320: 0e05 0cbe 3096 0ebd d208 993e 724c 1b3e
00000330: 7768 a4be 5aac 683e f16f 11be 1bcb eb3e
00000340: 0d36 a93d 58de 1dbf 1c16 a6be db42 15bf
00000350: 51c3 dabe 7566 1d3e 0143 83bd 4345 65be
00000360: a9c9 e1bd 50a3 dc3d 1e1d 09be 38a2 7d3e
00000370: e215 a4bd de9b bdbd 8863 463d ab78 bc3c
00000380: d1bd da3d 3ffa e23d 3553 1e3d 2ac9 e43d
00000390: f2f6 1dbd 7e74 cd3e 1d4b a7be f092 123b
000003a0: ee7e 183d 589f b13c 918d b73d d09d 87be
000003b0: c686 94bc 8e30 a8bd f7f6 133d 5c75 8c3e
000003c0: 95c0 c6bd 7a3c 763e e5aa 353e eb42 733e
000003d0: fbfc 613d 439c 6d3e 62d1 e33d 65c9 473b
000003e0: 2992 d2bd 621d 8dbe 7f19 803e 10e8 8c3e
000003f0: c9e2 b83e 3a59 223e 4af3 b43e 7050 113d

blocks.0.attn.proj.bias f4 [32]
0.05683241 0.067698516 0.044813793 0.030340886 -0.24878618 -0.04366154 -0.13508356 -0.12664375
0.16881041 -0.03063874 0.17630789 -0.04163216 0.058789425 0.2289704 -0.054830596 -0.0054922104
0.07617251 0.12984295 -0.1973984 -0.16292693 -0.10800961 -0.05753225 0.0017446607 -0.17929369
-0.0601952 -0.037665013 0.104751974 0.13210109 0.2952413 -0.14118747 0.21829787 0.09014347
00000000: 1ac9 683d 85a5 8a3d ab8e 373d 738d f83c
00000010: cec1 7ebe 71d6 32bd 5853 0abe e6ae 01be
00000020: a3dc 2c3e 18fe fabc 0e8a 343e 7c86 2abd
00000030: 2ecd 703d 3777 6a3e 0c96 60bd 00f8 b3bb
00000040: 5500 9c3d 8df5 043e ce22 4abe 51d6 26be
00000050: 2434 ddbd f0a6 6bbd 19ad e43a c498 37be
00000060: 3e8f 76bd a146 1abd 3488 d63d 8245 073e
00000070: de29 973e 7393 10be 7a89 5f3e 249d b83d

blocks.0.mlp.fc1.weight f4 [128, 32]
-0.16899091 -0.018313702 0.08860839 0.07732144 0.2785227 0.0010697511 0.1168588 0.27091968
-0.11616452 -0.3003503 0.15817471 -0.03130351 0.38452035 -0.057974078 -0.28884903 0.23146936
-0.06124342 0.19524728 -0.14906752 0.20898819 -0.08580191 0.006289329 -0.07049445 -0.08794283
0.20038149 -0.009593903 -0.18109101 -0.20991078 0.030703885 -0.18398026 0.06594169 0.05043075
-0.19947226 -0.119191065 0.26906535 -0.1284012 0.08538286 0.11143344 0.11480446 0.19863647
-0.12249725 -0.20145248 0.15591338 -0.06383929 0.34391662 0.14990051 0.0021651075 -0.023536323
-0.15576154 -0.109395586 -0.19453906 0.10567635 -0.08672159 0.12399052 0.07835856 -0.048517074
0.28382298 -0.19036298 0.17502286 -0.12886427 -0.07875886 -0.14883664 -0.21129292 -0.15128453
0.24042219 -0.073469706 0.096683815 0.41954628 -0.28205752 -0.0059903204 0.0032358337 0.12665582
0.26468432 0.3275986 -0.071950994 -0.26129496 -0.05274963 -0.100756146 0.11851652 0.06742297
-0.19141726 0.020405166 -0.54387635 -0.006698175 0.10671124 -0.4083733 0.0028775323 -0.20683739
0.2434815 -0.14122154 0.170287 -0.18450506 0.10003608 0.081927076 -0.15017977 0.18654428
0.1365414 0.011395398 0.21344252 -0.23603459 -0.21321145 -0.29637268 -0.018032717 0.021224577
0.030839361 0.05581245 0.14431748 0.49442106 -0.051208917 -0.13422087 -0.26770845 -0.15405773
0.20361014 0.05061151 0.04146581 0.0027826338 0.07967127 0.16894412 0.25300083 0.13924985
-0.26667202 -0.008535485 -0.08912079 0.44963047 -0.33169878 -0.20887 -0.031840004 -0.31830722
0.14398888 0.15886757 -0.111638024 -0.19639768 0.1671089 -0.15779364 -0.12199445 -0.12920396
-0.022961188 0.11411632 0.15926121 0.046506338 0.10783009 0.060261417 0.025488233 0.38006806
0.008225099 -0.059249442 0.4053667 0.23864911 0.1983635 -0.031598866 -0.022230351 -0.2884111
-0.10319797 -0.18327864 -0.31210694 -0.11508289 -0.13421607 -0.06434038 -0.16699374 0.052171953
-0.24787876 -0.11817047 0.31995234 -0.24001883 0.19145481 0.21360421 -0.27198127 -0.19088139
0.010687357 -0.025752693 -0.1231163 0.118523 -0.3188217 0.3007609 0.20831652 0.108688325
-0.040580418 0.13565339 -0.099863164 -0.32880265 0.10082002 0.08067338 0.099170305 -0.19050086
0.30211735 0.2260952 0.17528626 -0.09448882 0.10145679 -0.34855562 -0.15614817 -0.16803697
-0.1283671 -0.12303872 -0.072154656 0.26728857 0.12391616 0.005186301 0.08641892 0.13986349
-0.19088162 -0.064904965 -0.0044947052 -0.20314674 0.20825551 0.1997228 0.16055539 0.15422224
-0.11258929 -0.076892294 0.010474748 0.09013079 -0.024499638 -0.20671482 0.11502862 -0.24776517
0.14153734 -0.13629963 -0.046062354 -0.16982351 0.11187318 0.07053347 -0.11428791 0.17148575
-0.019718852 0.057470288 -0.10020034 -0.09642344 0.005253048 -0.34182388 -0.054029465 -0.14466691
-0.3455316 0.13097744 -0.23717943 0.16169962 0.018775135 0.42832342 0.07847983 -0.5755071
0.16602731 0.31660116 0.43499193 0.09004224 -0.3441627 0.25701016 -0.25491723 -0.054127116
0.0035225654 0.15046369 -0.2707965 0.24656114 0.05803106 -0.3404998 -0.25481823 0.11363382
00000000: f40b 2dbe 9e06 96bc 5178 b53d b45a 9e3d
00000010: 879a 8e3e e436 8c3a ab53 ef3d fcb5 8a3e
00000020: aae7 edbd 84c7 99be 8df8 213e 1c38 00bd
00000030: dadf c43e 3a76 6dbd 05e4 93be 4e06 6d3e
00000040: 61da 7abd e7ee 473e 28a5 18be 0001 563e
00000050: e9b8 afbd b716 ce3b 655f 90bd 5f1b b4bd
00000060: ce30 4d3e bf2f 1dbc ec6f 39be daf2 56be
00000070: b786 fb3c 5265 3cbe 700c 873d 7990 4e3d
00000080: 7542 4cbe 721a f4bd efc2 893e 9b7b 03be
00000090: 35dd ae3d 3737 e43d 9a1e eb3d 5c67 4b3e
000000a0: d7df fabd 8f49 4ebe c2a7 1f3e 2cbe 82bd
000000b0: d715 b03e 857f 193e 7ae4 0d3b 3fcf c0bc
000000c0: f47f 1fbe cb0a e0bd 3f35 47be d86c d83d
000000d0: 179b b1bd beee fd3d 747a a03d d7b9 46bd
000000e0: 3f51 913e 83ee 42be 3139 333e fff4 03be
000000f0: 534c a1bd a268 18be 2c5d 58be 55ea 1abe
00000100: 3c31 763e 4977 96bd 2a02 c63d c5ce d63e
00000110: d869 90be 734a c4bb 4810 543b 10b2 013e
00000120: b484 873e 01bb a73e 0b5b 93bd 74c8 85be
00000130: ff0f 58bd 3d59 cebd cab8 f23d 0e15 8a3d
00000140: e302 44be bc28 a73c 7b3b 0bbf 5d7c dbbb
00000150: 6c8b da3d 4e16 d1be fb94 3c3b 2ecd 53be
00000160: 3753 793e 619c 10be b75f 2e3e e5ee 3cbe
00000170: b7df cc3d 62c9 a73d bac8 19be 7705 3f3e
00000180: 82d1 0b3e c3b3 3a3c ad90 5a3e 0db3 71be
00000190: 1a54 5abe 29be 97be 59b9 93bc 2adf ad3c
000001a0: d4a2 fc3c 989b 643d f6c7 133e c224 fd3e
000001b0: 71c0 51bd 3271 09be 1511 89be 4fc1 1dbe
000001c0: 2d7f 503e 044e 4f3d 0ed8 293d d95c 363b
000001d0: b12a a33d b0ff 2c3e 5389 813e 8397 0e3e
000001e0: 3c89 88be 6bd8 0bbc f684 b6bd f735 e63e
000001f0: 6cd4 a9be 04e2 55be aa6a 02bd 2af9 a2be
00000200: d271 133e 2eae 223e 7aa2 e4bd 791c 49be
00000210: 981e 2b3e a894 21be 3ad8 f9bd 0b4e 04be
00000220: 1a19 bcbc d1b5 e93d 5f15 233e 6e7d 3e3d
00000230: 06d6 dc3d add4 763d b3cc d03c 4898 c23e
00000240: 91c2 063c 8baf 72bd 398c cf3e 6f60 743e
00000250: cd1f 4b3e d06d 01bd 6d1c b6bc 9faa 93be
00000260: 7559 d3bd 65ad 3bbe 7bcc 9fbe 94b0 ebbd
00000270: f06f 09be e4c4 83bd 6800 2bbe 42b2 553d
00000280: eed3 7dbe 5c03 f2bd cbd0 a33e 7fc7 75be
00000290: bb0c 443e 10bb 5a3e 2141 8bbe 6976 43be
000002a0: 061a 2f3c 50f7 d2bc 6624 fcbd 30bc f23d
000002b0: 993c a3be 55fd 993e ed50 553e fc97 de3d
000002c0: a737 26bd b9e8 0a3e 0f85 ccbd d258 a8be
000002d0: ba7a ce3d 1638 a53d cd19 cb3d a812 43be
000002e0: 20af 9a3e 8085 673e 3e7e 333e 5b83 c1bd
000002f0: 94c8 cf3d e275 b2be 4ee5 1fbe e211 2cbe
00000300: aa72 03be b9fb fbbd d2c5 93bd 0cda 883e
00000310: c1c7 fd3d d9f1 a93b 67fc b03d 6038 0f3e
00000320: 7976 43be e5ec 84bd 5248 93bb b305 50be
00000330: ef40 553e 2284 4c3e a268 243e 6fec 1d3e
00000340: 3795 e6bd b579 9dbd 479e 2b3c 7e96 b83d
00000350: 77b3 c8bc 0dad 53be 2094 eb3d 27b6 7dbe
00000360: 2aef 103e 2192 0bbe e1ab 3cbd 37e6 2dbe
00000370: c41d e53d da73 903d c80f eabd f699 2f3e
00000380: 6e89 a1bc f765 6b3d d635 cdbd a779 c5bd
00000390: c321 ac3b 8a03 afbe 004e 5dbd 9023 14be
000003a0: 85e9 b0be f31e 063e 2adf 72be 9694 253e
000003b0: 50ce 993c 354d db3e 08ba a03d 6f54 13bf
000003c0: 1003 2a3e 8c19 a23e 43b7 de3e 1168 b83d
000003d0: 1836 b0be d696 833e 8384 82be 65b4 5dbd
000003e0: d7da 663b 2713 1a3e d7a5 8abe 867a 7c3e
000003f0: fab1 6d3d fd55 aebe 8977 82be d9b8 e83d

blocks.0.mlp.fc1.bias f4 [128]
-0.15009525 -0.00047657447 0.07172553 -0.0029236218 -0.05052861 -0.3253534 -0.111245155 -0.06588776
-0.14705408 0.01486009 0.00072608347 -0.04980342 0.03807526 0.17126602 -0.023183793 -0.008157453
-0.06415053 0.010884204 0.06957279 0.11219275 -0.015849305 -0.20694809 -0.03950446 -0.022321392
0.03474609 0.017971827 -0.046857335 -0.043529846 -0.18113676 0.060470853 -0.10638664 -0.16701405
0.11416024 -0.045982838 0.14966062 -0.0035262124 -0.047064293 -0.003999968 -0.094987266 -0.2138864
0.24313062 -0.08796188 -0.19292675 0.13289154 -0.17901303 -0.112484306 -0.0075781494 -0.0021182974
-0.12954935 -0.1090172 -0.18096852 0.04912447 -0.25230658 -0.32130468 0.02549099 0.03263014
0.034986865 -0.2262631 0.2075299 0.029603109 0.064958185 0.009245081 -0.16960968 0.15477729
0.05419826 0.03791038 0.114965335 -0.003968406 -0.003407401 -0.05285922 0.1260398 -0.117101535
-0.14273053 -0.030911682 0.04931599 0.09087836 -0.052657556 0.03988147 -0.012241348 -0.27102423
-0.055537634 -0.13301289 -0.20065935 0.03439914 0.0135927545 -0.03402205 -0.08538885 -0.0025189712
-0.11092884 -0.31990084 0.042852648 0.055623148 -0.0012968412 0.016924672 0.044099875 -0.12924238
0.042117964 0.10684802 -0.30638766 -0.18143247 -0.10600452 -0.014946726 -0.28211844 0.11207842
-0.13863617 0.010987251 -0.074154705 -0.15499993 -0.019231321 0.04305687 -0.1185222 0.05413597
0.021247795 -0.20123917 -0.18920566 -0.30088952 -0.0055056233 -0.07074756 0.03664479 0.057214793
0.0892317 -0.27390528 -0.17898396 -0.019408317 0.077200286 -0.17006144 0.026841626 0.047180396
00000000: 92b2 19be bedc f9b9 d6e4 923d 3c9a 3fbb
00000010: 16f7 4ebd b994 a6be 80d4 e3bd 29f0 86bd
00000020: 5895 16be bc77 733c a356 3e3a acfe 4bbd
00000030: cef4 1b3d 5c60 2f3e f0eb bdbc d6a6 05bc
00000040: 5a61 83bd a953 323c 2e7c 8e3d 50c5 e53d
00000050: 67d6 81bc 33ea 53be 6ecf 21bd 5adb b6bc
00000060: eb51 0e3d a739 933c 7aed 3fbd 5a4c 32bd
00000070: ea7b 39be 49b0 773d 3de1 d9bd bb05 2bbe
00000080: d8cc e93d 8058 3cbd a240 193e 0718 67bb
00000090: 7dc6 40bd 2a12 83bb af88 c2bd 0905 5bbe
000000a0: 3cf7 783e 5c25 b4bd 978e 45be b814 083e
000000b0: 314f 37be 2c5e e6bd 2052 f8bb 22d3 0abb
000000c0: 96a8 04be 6944 dfbd d04f 39be be36 493d
000000d0: 542e 81be 0c82 a4be 7bd2 d03c 2fa7 053d
000000e0: 634e 0f3d 84b1 67be b882 543e 3882 f23c
000000f0: cc08 853d ae78 173c 29ae 2dbe f07d 1e3e
00000100: fffe 5d3d ea47 1b3d f272 eb3d 6709 82bb
00000110: b44e 5fbb e982 58bd 9410 013e eed2 efbd
00000120: f427 12be 7f3a fdbc 90ff 493d 6f1e ba3d
00000130: 73af 57bd c15a 233d ef8f 48bc b0c3 8abe
00000140: 6e7b 63bd 8834 08be a579 4dbe 1de6 0c3d
00000150: 25b4 5e3c b55a 0bbd 59e0 aebd 5315 25bb
00000160: a92e e3bd 0bca a3be 4286 2f3d 19d5 633d
00000170: c5fa a9ba 9ca5 8a3c 12a2 343d 1d58 04be
00000180: e383 2c3d 22d3 da3d d8de 9cbe 6fc9 39be
00000190: e618 d9bd 1de3 74bc d471 90be 5f89 e53d
000001a0: a4f6 0dbe df03 343c 6cde 97bd 4db8 1ebe
000001b0: 018b 9dbc 675c 303d c4bb f2bd aebd 5d3d
000001c0: db0f ae3c a411 4ebe 21bf 41be 310e 9abe
000001d0: 8468 b4bb 19e4 90bd d918 163d 0f5a 6a3d
000001e0: 1cbf b63d 503d 8cbe 9247 37be 31fe 9ebc
000001f0: 2f1b 9e3d 9624 2ebe f8e2 db3c 3b40 413d

blocks.0.mlp.fc2.weight f4 [32, 128]
0.06559882 -0.003566804 -0.15326124 -0.0653272 -0.17357557 0.08836601 0.039417084 -0.13054836
-0.03676627 -0.018080208 0.2607436 0.004507014 0.004371614 -0.03839166 0.013174451 0.16631253
-0.27114016 0.27011997 0.028186562 -0.04951375 -0.013305565 0.053388402 -0.15512018 0.007517718
0.13529748 -0.075638 -0.08093665 0.02587616 -0.11088689 -0.25514552 -0.021905487 -0.02368433
-0.048102375 -0.2114188 -0.15077533 -0.33694333 -0.14550109 0.04668509 0.22879364 0.19908464
-0.0388 0.09313896 0.009254228 -0.031261627 0.12953258 0.22579451 -0.008809155 -0.16460046
-0.1074201 -0.013232961 0.014605055 -0.10563833 -0.20981406 0.2572277 0.13142134 0.17970534
-0.0359998 0.04199277 -0.25479805 -0.10809613 0.004174903 -0.12557605 -0.076054215 -0.10046797
-0.0097663505 -0.07381902 -0.121056736 -0.13875449 0.045951243 -0.06331712 -0.15416047 -0.090950556
-0.014603682 0.061960027 0.45624247 -0.1093633 0.14423873 0.17292902 0.11553894 0.19071376
-0.017243108 -0.029863507 -0.36602893 -0.112365715 0.024541274 -0.08801823 -0.12540229 -0.0004809302
-0.18946601 -0.10480775 -0.050029095 -0.11113016 -0.10905544 0.023750104 -0.16684757 0.10319211
-0.16957532 -0.3042464 0.20936432 -0.020472676 -0.10807446 -0.110125996 -0.03264661 -0.06362149
0.073438786 -0.2364719 -0.14648578 0.22442862 -0.026177114 -0.22712885 -0.06822715 -0.044423237
0.021089558 0.29768977 -0.044665646 0.026788335 -0.099537425 0.040333536 0.18468921 -0.12887388
0.058925003 -0.0636547 0.18532376 0.018692113 -0.020989422 -0.19442391 -0.04731439 -0.04066586
0.03523246 -0.04775319 0.067479886 0.0052376464 0.03360425 0.29772064 0.060779385 0.008793456
-0.14709674 0.23359853 -0.21184209 -0.14483368 -0.01766922 -0.19200303 -0.14937104 0.0043786746
-0.03524241 0.247991 -0.22286783 0.20366852 -0.28836358 -0.27384993 0.12326554 0.07363782
-0.015118932 -0.2578488 0.19278254 -0.10758182 0.33672887 0.0484009 0.12678358 -0.03286331
0.016589688 -0.27070546 -0.010963798 -0.20857768 -0.26006022 0.049807996 0.12354417 -0.20648208
0.0258849 0.12106142 0.0695125 -0.16033739 0.04821815 -0.011562734 -0.068347596 -0.17975637
0.17543592 -0.08522249 -0.31049582 -0.04833473 -0.10249028 0.2011106 -0.39047417 -0.092262566
0.035664193 0.21820785 0.17740567 -0.07779551 0.06349359 0.026264092 -0.13452151 -0.098667845
-0.12058074 -0.02597664 -0.06744157 -0.009114827 -0.07324199 -0.053476185 -0.1572238 -0.054286975
-0.14681014 -0.061658867 -0.05772823 0.3218626 -0.047318786 -0.17901626 0.06190236 -0.04026862
0.06400822 0.1595876 0.12921858 0.09076538 -0.15969926 -0.24069035 0.035689503 -0.018395096
-0.15540558 0.03550305 -0.31616047 -0.10086052 0.12510544 -0.08805312 0.025551809 0.052661378
0.010565246 0.037108097 0.24653289 0.07291477 -0.028753756 -0.16289942 0.041457936 -0.35546452
0.1482735 -0.034826588 -0.14211293 0.045460403 0.0442739 0.16637604 0.05883932 -0.024648951
-0.16907221 -0.135597 -0.0022986045 -0.08027002 -0.12969357 0.06373174 -0.148514 0.08290889
0.046008456 0.32630935 -0.20840645 0.07959054 0.19545507 -0.09439313 -0.04388499 0.04064538
00000000: ad58 863d 0bc1 69bb 84f0 1cbe 44ca 85bd
00000010: cbbd 31be 3df9 b43d cf73 213d 78ae 05be
00000020: 3a98 16bd f21c 94bc 2f80 853e 93af 933b
00000030: c23f 8f3b 9340 1dbd a7d9 573c d54d 2a3e
00000040: e2d2 8abe 2a4d 8a3e 81e7 e63c eece 4abd
00000050: 96ff 59bc ccad 5a3d d3d7 1ebe 3057 f63b
00000060: 6c8b 0a3e 19e8 9abd 1dc2 a5bd 3efa d33c
00000070: aa18 e3bd 6fa2 82be 2373 b3bc a405 c2bc
00000080: ff06 45bd 2b7e 58be d964 1abe d683 acbe
00000090: 3dfe 14be dd38 3f3d e148 6a3e d8dc 4b3e
000000a0: c0ec 1ebd a4bf be3d 0c9f 173c 310c 00bd
000000b0: 30a4 043e ad36 673e 4654 10bc 068d 28be
000000c0: 12ff dbbd 10cf 58bc 0a4a 6f3c e958 d8bd
000000d0: 7fd9 56be 59b3 833e 5193 063e ad04 383e
000000e0: 8774 13bd 9c00 2c3d e474 82be 8161 ddbd
000000f0: a0cd 883b 0297 00be 50c2 9bbd 27c2 cdbd
00000100: 0b03 20bc 6d2e 97bd 98ec f7bd a815 0ebe
00000110: 5f37 3c3d 68ac 81bd 3edc 1dbe 4944 babd
00000120: 4844 6fbc ccc9 7d3d 9d98 e93e def9 dfbd
00000130: 51b3 133e 4e14 313e ae9f ec3d 784a 433e
00000140: 6b41 8dbc 50a4 f4bc 2568 bbbe ff1f e6bd
00000150: c80a c93c e742 b4bd 7569 00be 5c25 fcb9
00000160: 6103 42be 72a5 d6bd 4feb 4cbd 3698 e3bd
00000170: 7558 dfbd 948f c23c 17da 2abe 6356 d33d
00000180: 27a5 2dbe 2fc6 9bbe 9a63 563e 50b6 a7bc
00000190: 2456 ddbd bd89 e1bd 74b8 05bd fc4b 82bd
000001a0: 1367 963d b125 72be 5e00 16be 9ed0 653e
000001b0: 6371 d6bc 7794 68be adba 8bbd 24f5 35bd
000001c0: 02c4 ac3c cb6a 983e 53f3 36bd 3673 db3c
000001d0: 47da cbbd c734 253d 2b1f 3d3e 84f7 03be
000001e0: 585b 713d 655d 82bd 83c5 3d3e 3420 993c
000001f0: 02f2 abbc 1017 47be bccc 41bd 3f91 26bd
00000200: e94f 103d d998 43bd e532 8a3d 90a0 ab3b
00000210: 9ca4 093d d76e 983e cef3 783d 6d12 103c
00000220: 87a0 16be 7434 6f3e 22ed 58be 484f 14be
00000230: 0abf 90bc 719c 44be b9f4 18be fc7a 8f3b
00000240: 585a 10bd 5af1 7d3e 7737 64be 7b8e 503e
00000250: 64a4 93be 0f36 8cbe a572 fc3d 6dcf 963d
00000260: 66b5 77bc c204 84be c968 453e db53 dcbd
00000270: ba67 ac3e 0640 463d 8ed3 013e ae9b 06bd
00000280: 19e7 873c e899 8abe 80a1 33bc 6395 55be
00000290: 9d26 85be 7803 4c3d ba04 fd3d 0a70 53be
000002a0: 920c d43c 0def f73d 925c 8e3d 7c2f 24be
000002b0: 6580 453d 9f71 3dbc d3f9 8bbd 0e12 38be
000002c0: 79a5 333e 2189 aebd 4ff9 9ebe a3fa 45bd
000002d0: 6de6 d1bd f0ef 4d3e 3bec c7be 28f4 bcbd
000002e0: 9e14 123d e171 5f3e d5a9 353e 4153 9fbd
000002f0: ed08 823d cb27 d73c 02c0 09be 5e12 cabd
00000300: 09f3 f6bd f6cc d4bc ce1e 8abd 5b56 15bc
00000310: e5ff 95bd d809 5bbd 47ff 20be 055c 5ebd
00000320: 6655 16be 028e 7cbd 7074 6cbd 2dcb a43e
00000330: 58d1 41bd 0a50 37be 548d 7d3d b5f0 24bd
00000340: be16 833d ef6a 233e e051 043e 33e3 b93d
00000350: 3488 23be 8877 76be 282f 123d 50b1 96bc
00000360: a422 1fbe a56b 113d c9df a1be f68f cebd
00000370: a41b 003e 3255 b4bd 0752 d13c 75b3 573d
00000380: db19 2d3c a9fe 173d 1e73 7c3e 5754 953d
00000390: ff8c ebbc 1bcf 26be cccf 293d 72ff b5be
000003a0: 02d5 173e 53a6 0ebd 0d86 11be b034 3a3d
000003b0: 8d58 353d 7b5e 2a3e 8001 713d 99ec c9bc
000003c0: 4421 2dbe f1d9 0abe 2fa4 16bb 9c64 a4bd
000003d0: 64ce 04be c985 823d 0e14 18be 23cc a93d
000003e0: 5d73 3c3d 0512 a73e 8068 55be 5d00 a33d
000003f0: 6025 483e 2f51 c1bd bfc0 33bd c57b 263d

blocks.0.mlp.fc2.bias f4 [32]
-0.15119778 -0.039138153 -0.069868594 0.01946064 -0.059755567 -0.02616933 -0.046729583 -0.024074687
-0.07901841 -0.11812534 -0.053676832 0.0067446535 0.19106433 -0.14758752 0.04656933 0.08340412
-0.07735186 -0.021737976 0.15226221 0.06272585 -0.0849839 0.07659785 0.0068264394 0.04601581
-0.0054947115 0.055835128 0.081806056 0.0069724964 0.0031583433 -0.09557652 0.044856474 0.049479693
00000000: 97d3 1abe 544f 20bd 4417 8fbd ec6b 9f3c
00000010: 41c2 74bd 1061 d6bc 8567 3fbd 4738 c5bc
00000020: 67d4 a1bd b3eb f1bd 3ddc 5bbd 4102 dd3b
00000030: 5ea6 433e 2f21 17be 7bbf 3e3d c7cf aa3d
00000040: a76a 9ebd d713 b2bc a0ea 1b3e 6976 803d
00000050: 0a0c aebd 55df 9c3d 53b0 df3b 137b 3c3d
00000060: fb0c b4bb 60b3 643d ef89 a73d 8a79 e43b
00000070: 35fc 4e3b 9fbd c3bd 6cbb 373d 38ab 4a3d

blocks.0.norm1.weight f4 [32]
0.90262365 1.0855423 1.1774982 0.93758893 1.0255888 0.98726106 1.1014616 0.91932213
1.0389049 1.0317214 1.3123412 1.2927233 1.1950985 1.2473301 1.1552569 1.0711399
1.1894624 1.123369 1.149959 1.1855248 1.0781476 1.1301112 1.1017041 0.9044773
1.0687176 1.1215919 1.2067823 1.0649257 1.2821928 1.0620803 1.1696222 1.2773441
00000000: 5812 673f 0df3 8a3f 43b8 963f d405 703f
00000010: 7e46 833f 24bd 7c3f b2fc 8c3f b258 6b3f
00000020: d6fa 843f 720f 843f ccfa a73f f577 a53f
00000030: fdf8 983f 83a8 9f3f 75df 933f 1d1b 893f
00000040: 4e40 983f 8eca 8f3f db31 933f 47bf 973f
00000050: be00 8a3f 7ca7 903f a404 8d3f d38b 673f
00000060: bdcb 883f 5390 8f3f d877 9a3f 7c4f 883f
00000070: e51e a43f 3ff2 873f 2eb6 953f 0380 a33f

blocks.0.norm1.bias f4 [32]
-0.040818535 -0.08251422 -0.04611738 0.10792122 0.05566821 -0.047501553 -0.057458825 0.00014848898
-0.05556148 -0.25646454 0.10267467 -0.15663706 0.043097667 0.012563168 0.01739343 0.07021288
-0.13792902 -0.10144441 -0.011131917 0.0006100873 0.09251801 0.14659517 0.17195325 0.11350826
-0.101035915 -0.21251595 -0.05147957 -0.021370254 0.011904466 0.0033055732 -0.05585833 0.024787132
00000000: 5631 27bd 37fd a8bd 94e5 3cbd cd05 dd3d
00000010: 5904 643d fd90 42bd f259 6bbd b5b3 1b39
00000020: 6f94 63bd 524f 83be 1947 d23d 7765 20be
00000030: 2e87 303d bfd5 4d3c ab7c 8e3c c5cb 8f3d
00000040: 443d 0dbe 16c2 cfbd a562 36bc 44ee 1f3a
00000050: 157a bd3d 0b1d 163e 8314 303e 0577 e83d
00000060: ebeb cebd c89d 59be 3edc 52bd ac10 afbc
00000070: f30a 433c 51a2 583b b4cb 64bd 620e cb3c

blocks.0.norm2.weight f4 [32]
1.0237647 1.1229966 1.3398029 1.1561992 1.0137058 1.1933198 1.2611489 1.2160562
1.2794846 1.1949282 1.0921775 1.3404021 1.3668108 1.3292719 1.1762127 1.2976233
1.2201118 1.1699545 1.2760217 1.1277333 1.3156087 1.3813901 1.1514 1.2022277
1.1302307 1.2089771 1.3188022 1.0650666 1.2198632 1.2854714 1.2127718 1.2080736
00000000: b90a 833f 5abe 8f3f a97e ab3f 56fe 933f
00000010: 1dc1 813f b4be 983f 546d a13f bba7 9b3f
00000020: 27c6 a33f 68f3 983f 79cc 8b3f 4c92 ab3f
00000030: a8f3 ae3f 9525 aa3f 238e 963f 8518 a63f
00000040: a02c 9c3f 12c1 953f ae54 a33f 9159 903f
00000050: de65 a83f 64d1 b03f 1361 933f 99e2 993f
00000060: 66ab 903f c3bf 9a3f 83ce a83f 1a54 883f
00000070: 7a24 9c3f 548a a43f 1b3c 9b3f 28a2 9a3f

blocks.0.norm2.bias f4 [32]
0.028986286 0.022926832 -0.07450648 -0.055453077 -0.11852644 -0.07919936 -0.05459998 0.02643967
0.044414457 -0.019834977 0.04253827 0.061690688 -0.16791147 -0.03536185 0.05591822 0.012986969
0.13293308 0.023693508 -0.0032106084 0.13594733 -0.110347815 0.0091007175 0.116805315 0.09374847
0.045936108 -0.07676998 -0.04506428 0.07070034 -0.11451475 0.13416119 0.026695572 -0.14547896
00000000: a674 ed3c 0dd1 bb3c da96 98bd c422 63bd
00000010: fdbd f2bd 4633 a2bd 3ba4 5fbd 0298 d83c
00000020: efeb 353d f67c a2bc 9c3c 2e3d 60af 7c3d
00000030: fcf0 2bbe 96d7 10bd 810a 653d 4cc7 543c
00000040: 9c1f 083e e318 c23c 1269 52bb c735 0b3e
00000050: 09fe e1bd 2d1b 153c a037 ef3d 33ff bf3d
00000060: 8027 3c3d 9439 9dbd 5395 38bd 57cb 903d
00000070: b686 eabd 8d61 093e acb0 da3c 70f8 14be

blocks.0.ls1.gamma f4 [32]
-0.23105402 0.112257876 -0.18973833 0.21356341 0.22741929 -0.32018474 -0.35069063 0.3004112
0.32153648 0.23739834 -0.3449719 -0.23619056 0.21743733 -0.09362942 0.17111333 -0.3127379
-0.11235693 0.08393866 0.16151072 -0.2635726 0.05233838 0.13435726 0.2854599 -0.22125378
-0.1613908 0.18091437 -0.1299926 -0.25210917 0.24241886 -0.31464592 -0.21683626 0.337575
00000000: 6d99 6cbe 75e7 e53d c44a 42be 5eb0 5a3e
00000010: 9ae0 683e 41ef a3be b98d b3be 7fcf 993e
00000020: 6ea0 a43e 8d18 733e 28a0 b0be f0db 71be
00000030: e4a7 5e3e c8c0 bfbd 5538 2f3e 2f1f a0be
00000040: 641b e6bd 08e8 ab3d 1163 253e fdf2 86be
00000050: c560 563d f394 093e cd27 923e 5a90 62be
00000060: a143 25be 9e41 393e c81c 05be 7414 81be
00000070: a63c 783e 4519 a1be 530a 5ebe a1d6 ac3e

blocks.0.ls2.gamma f4 [32]
0.17700566 0.1998223 0.21307503 -0.48152924 0.19222364 0.21726325 -0.17600642 -0.19357757
-0.22671854 0.12541299 -0.23591882 0.2364075 -0.2731829 0.18967062 -0.14897941 0.10828978
0.2595749 -0.16910413 -0.15781975 0.16723718 0.21610177 -0.17291798 0.38972288 0.1347434
-0.17549689 -0.21645564 -0.22580421 0.30958578 0.2268588 -0.26866508 -0.44335654 0.21725973
00000000: f940 353e 389e 4c3e 5730 5a3e 008b f6be
00000010: 46d6 443e 427a 5e3e 073b 34be 3339 46be
00000020: e828 68be 436c 003e b494 71be cf14 723e
00000030: a1de 8bbe 0439 423e 0f8e 18be 08c7 dd3d
00000040: 00e7 843e a229 2dbe 809b 21be 3940 2b3e
00000050: c849 5d3e 6911 31be c289 c73e 2dfa 093e
00000060: 75b5 33be 8ca6 5dbe 3839 67be 0782 9e3e
00000070: ac4d 683e 788e 89be a1ff e2be 5679 5e3e
